best_model.pth (torch, 604281 bytes, 5 tensors)

net.0.weight f4 [256, 70]
0	0x3faf60e6	1.3701446
1	0xc125821c	-10.344265
2	0x3f8bdff7	1.0927724
3	0x40f03a8f	7.5071483
4	0x3cf77afb	0.030210009
5	0xc17851cb	-15.519969
6	0x41491bbc	12.569271
7	0x40b1cdce	5.5563726
8	0x40d0d2c4	6.525728
9	0x416c160c	14.755383
10	0x4157cb72	13.487169
11	0x420c1ab1	35.026066
12	0x41a7dd11	20.982943
13	0x40dd8f13	6.923715
14	0x4138f845	11.560613
15	0x4110f7af	9.06047
16	0x415c6ecc	13.77705
17	0x4191847f	18.189695
18	0x41a24336	20.282818
19	0x41938c59	18.44353
20	0x419f475d	19.909845
21	0x417f2c79	15.948358
22	0x415b76fe	13.716551
23	0x417418e3	15.256076
24	0x4192b57e	18.33862
25	0x4193046f	18.377165
26	0x418631d2	16.774326
27	0x4191d34e	18.228176
28	0x41b8a1d6	23.079021
29	0x41abf9ea	21.497028
30	0x4192f743	18.370733
31	0x418ea79c	17.83184
32	0x416ff692	14.997698
33	0x418ecaf2	17.849094
34	0x41b2e50c	22.36184
35	0x41c06886	24.051037
36	0x4179e0b1	15.617356
37	0x418c06bd	17.50329
38	0x41de6903	27.801275
39	0x419317de	18.386654
40	0x419d376c	19.652061
41	0x41a66f74	20.80442
42	0x4123dcfa	10.241449
43	0x40d8e951	6.778481
44	0x40990e27	4.7829776
45	0x416c41b0	14.766037
46	0x415ce0dc	13.804897
47	0x415a3353	13.63753
48	0x4143e6c6	12.243841
49	0x4172a9b4	15.166431
50	0x4182e50b	16.361837
51	0x41949789	18.573992
52	0x41a2ef17	20.366743
53	0x418e7b1f	17.810118
54	0x418f289f	17.894835
55	0x4183ca0a	16.473652
56	0x416d0f65	14.816258
57	0x418d7b27	17.685133
58	0x418b10dd	17.383234
59	0x418b4b22	17.411686
60	0x416f1c56	14.944418
61	0x4192ab5c	18.333672
62	0x4192619c	18.29766
63	0x41997d4a	19.186176
64	0x414f7fed	12.968732
65	0x4135c4d5	11.360555
66	0x412991eb	10.5981245
67	0x4148310a	12.511972
68	0x415378dd	13.217008
69	0xc12f62ed	-10.961652
70	0xc19ad172	-19.352268
71	0x3e21744c	0.1576702
72	0xc1978859	-18.941576
73	0xc18c3c2a	-17.529377
74	0x41617f2d	14.093549
75	0xbf8a88e1	-1.0823022
76	0x413032ec	11.012432
77	0x417524b3	15.32146
78	0x411787a0	9.470612
79	0x3f2d5eeb	0.6772296
80	0x4114098f	9.252334
81	0x41172c44	9.448307
82	0x3e081ca9	0.13292183
83	0xbf80bcb1	-1.0057584
84	0x402c5a8d	2.6930268
85	0x41654a13	14.330585
86	0x41052e54	8.323811
87	0x4072d24a	3.794085
88	0x41115302	9.082766
89	0x400d7fe9	2.210932
90	0x407bbf5e	3.9335551
91	0xbf844b55	-1.033549
92	0x4188a37f	17.079832
93	0x4157bf78	13.484245
94	0x414a2e64	12.636326
95	0x410b112b	8.691691
96	0x40dc13a9	6.8774
97	0xbfdd69d1	-1.7297918
98	0xc035349e	-2.8313365
99	0x40a19f01	5.0506597
100	0x40f9b0c3	7.8028274
101	0x40b29197	5.580272
102	0xbf09cb83	-0.5382616
103	0x40b4bc3c	5.647978
104	0x40b5ab39	5.677151
105	0x41549078	13.285271
106	0x408e0367	4.4379153
107	0x4174edfa	15.3081
108	0x414045de	12.017057
109	0x4111d1a0	9.113678
110	0x41980872	19.004124
111	0x4126e717	10.431418
112	0x41388ff7	11.535148
113	0x4105ad72	8.354845
114	0xc0a03384	-5.0062885
115	0x400c41db	2.1915195
116	0x412936fc	10.575924
117	0x40988668	4.766407
118	0x3fcc099b	1.5940431
119	0x40cd2a32	6.411401
120	0x40c5aa24	6.177019
121	0x408f85c4	4.485079
122	0x4094a36d	4.6449494
123	0x4157d2e5	13.488988
124	0x408f1fbf	4.4726253
125	0x401d76ee	2.460384
126	0x400328b5	2.0493596
127	0x414c5ba3	12.772372
128	0xbf25917b	-0.6467511
129	0x4131ff73	11.124866
130	0xbfd5f371	-1.6714917
131	0xc06ee915	-3.7329762
132	0x41006676	8.025015
133	0x40f1837d	7.547301
134	0x4094af76	4.6464186
135	0x4138f005	11.5585985
136	0x416df1d3	14.871539
137	0x41225931	10.146775
138	0x408e9640	4.455841
139	0xc20dfec5	-35.4988
140	0xc1e5eb0a	-28.739765
141	0x40862b9a	4.1928225
142	0xc1f3b5c4	-30.463753
143	0x3f8118c7	1.0085686
144	0x40a8b87a	5.272519
145	0xc135dfbd	-11.367124
146	0xc04fa2ca	-3.2443109
147	0x4055a032	3.3379025
148	0xc051bffa	-3.2773423
149	0xc11ebf71	-9.921739
150	0xc06d3195	-3.7061512
151	0xc0d74fc7	-6.7284884
152	0xc0234b26	-2.5514617
153	0xc0f5ac9d	-7.677321
154	0xc0b42712	-5.6297693
155	0x41118f59	9.097497
156	0x3f9cb608	1.2243052
157	0xbf13a303	-0.5767061
158	0x3f924fbd	1.1430584
159	0xc022e64a	-2.5453057
160	0xbf307ede	-0.68943584
161	0xbfceae98	-1.6147032
162	0x3fa558b9	1.2917701
163	0x4080ed3c	4.0289593
164	0x3f2e9b7f	0.6820602
165	0x40dbc42c	6.867697
166	0x409679af	4.702354
167	0xbeffd68d	-0.49968377
168	0xc01efbfd	-2.4841301
169	0xc01a5b7c	-2.4118338
170	0xbf9046e0	-1.1271629
171	0xbf125fe7	-0.57177585
172	0xbe6b4ba0	-0.22978067
173	0x3fd61cc7	1.6727532
174	0x40590b55	3.3913167
175	0x3fca09d3	1.5784248
176	0xbf9214b9	-1.1412574
177	0x407945f8	3.8948956
178	0xbfcece6e	-1.6156747
179	0xbfdf1301	-1.7427675
180	0xbfa2d1e8	-1.2720308
181	0xbeda8369	-0.42678383
182	0x40cc0c82	6.376527
183	0x40cc2df7	6.380611
184	0x40905dbc	4.511442
185	0x3fb2e9fb	1.3977655
186	0x410bb11b	8.730739
187	0xbf113b84	-0.5673144
188	0xbfa90f06	-1.320771
189	0x3ed468d3	0.41486225
190	0x404e4b35	3.2233403
191	0x4043b5c5	3.0579693
192	0xbfe6d1d4	-1.8032784
193	0x401a40b7	2.4101999
194	0x409e2b95	4.94282
195	0x4089c523	4.3053145
196	0x3fcc80cd	1.5976807
197	0x3ffa60d5	1.9560801
198	0x40d6172b	6.690328
199	0x40762789	3.846163
200	0xc0029133	-2.0401123
201	0xc078488a	-3.8794274
202	0x3fa9a6ab	1.3253988
203	0xc07f228d	-3.9864838
204	0xbfa6cd3d	-1.3031384
205	0x3e20a4d2	0.15687874
206	0xbff9c9de	-1.951473
207	0xbff72faa	-1.9311421
208	0x40cae00d	6.33985
209	0xc1183d98	-9.515038
210	0xc1109399	-9.036035
211	0x4209b870	34.430115
212	0xc105c408	-8.360359
213	0x410e9e94	8.913715
214	0x41333a7f	11.201781
215	0x412e6ca1	10.901521
216	0x40ec1bd9	7.3783994
217	0x408a6dcb	4.3259025
218	0x406a7461	3.6633532
219	0x413161ef	11.08641
220	0x410b1e78	8.694939
221	0x40f17f39	7.54678
222	0x40eb40c2	7.351655
223	0x40c46f97	6.138622
224	0x40ef2165	7.4728265
225	0x40bbe5d5	5.8718057
226	0xc0d78bc8	-6.735813
227	0x41923087	18.273695
228	0x41a0d5d4	20.104408
229	0x41860e5d	16.757013
230	0x41926407	18.298841
231	0x41517328	13.090614
232	0x412bea19	10.744653
233	0x412d9989	10.849984
234	0x41480405	12.500981
235	0x4160deec	14.054424
236	0x4164bb6b	14.295756
237	0x415286c8	13.157906
238	0x41406f9b	12.027247
239	0x414525ed	12.321759
240	0x414c5e8e	12.773085
241	0x41269e9f	10.413726
242	0x418ee88f	17.863554
243	0x412b0700	10.689209
244	0x41733ed7	15.202842
245	0x41419ae6	12.100317
246	0x418630ea	16.773884
247	0x4133ada2	11.229891
248	0x414ead4b	12.917308
249	0x4141e47b	12.118281
250	0x41708bf2	15.034166
251	0x41497714	12.591572
252	0x413a0b1f	11.627715
253	0x414694bc	12.411312
254	0x41168eca	9.409861
255	0x41217111	10.090104

net.0.bias f4 [256]
0	0xc1e123e8	-28.142532
1	0xc1c27563	-24.307318
2	0xc1804767	-16.034864
3	0xc2073c7b	-33.809063
4	0xc21ec7f2	-39.69526
5	0xc191a563	-18.205755
6	0xc156dcb5	-13.428884
7	0xc1ca4883	-25.285406
8	0xc10e8af7	-8.908927
9	0xc20a9324	-34.643692
10	0xc1b6eb7b	-22.86498
11	0xc1c1090b	-24.129416
12	0xc15f6b44	-13.963688
13	0xc2073eb3	-33.81123
14	0xc1eff762	-29.995792
15	0xc1ee83a8	-29.814285
16	0xc1a76dbc	-20.928581
17	0xc261ba3c	-56.43187
18	0xc18aad05	-17.334482
19	0xbf9063f1	-1.12805
20	0xc17c28fb	-15.760005
21	0xc1c47cd9	-24.56096
22	0x40aa694d	5.325354
23	0xc1abbdc0	-21.467651
24	0xc1f3ceb9	-30.475939
25	0xc16072ae	-14.027998
26	0xc0951d06	-4.659793
27	0xc19f217a	-19.891346
28	0x40d641f2	6.69555
29	0xc0c9f7c8	-6.3114967
30	0xc2194f61	-38.32752
31	0xc22f5004	-43.82814
32	0xc19d1879	-19.63695
33	0xc1d735a9	-26.901201
34	0xc214e423	-37.22279
35	0xc2133a6b	-36.80705
36	0xc2137d55	-36.872395
37	0xc16a21af	-14.633224
38	0xc189898e	-17.192165
39	0xc1f572a7	-30.680983
40	0xc195ce7a	-18.725819
41	0xc206d653	-33.7093
42	0xc22f7fd6	-43.87484
43	0xc237a41e	-45.91027
44	0xc2305342	-44.081306
45	0xc0fd41b1	-7.914269
46	0xc1d77fad	-26.937342
47	0xc12c9dc1	-10.788514
48	0xc0b502b4	-5.65658
49	0xc0ceacc8	-6.4585915
50	0xc1e733b6	-28.90025
51	0xc1faef98	-31.36699
52	0xc1afba5b	-21.965994
53	0xc02339fd	-2.5504143
54	0xc15ce1f1	-13.805161
55	0xc18b32f7	-17.399885
56	0xbf8ca9a4	-1.098927
57	0xc2371f40	-45.780518
58	0xc1f85a09	-31.043962
59	0xc1eb1323	-29.384344
60	0xc18394b7	-16.447615
61	0xc228a734	-42.163284
62	0xc1976b5b	-18.92742
63	0xc216db2b	-37.71403
64	0xc2087f5b	-34.12437
65	0xc0476df6	-3.1160865
66	0xc0096850	-2.1469917
67	0xc1cd908a	-25.695576
68	0xc267d6c0	-57.959717
69	0xc15f4f41	-13.956849
70	0xbf48f24b	-0.7849471
71	0xc0f51a46	-7.659457
72	0xc21442e8	-37.06534
73	0xc1c60fc5	-24.7577
74	0xc245b0a1	-49.42249
75	0xc22c4ef2	-43.077095
76	0xc1c7ebfb	-24.990225
77	0xc22de72c	-43.475754
78	0xc13e2e79	-11.886346
79	0xc20065f1	-32.099552
80	0xc025450d	-2.5823395
81	0xc1ba511b	-23.289602
82	0xc0f4598c	-7.635931
83	0x409ee3d7	4.9653125
84	0x3e293be9	0.1652676
85	0xc20cb976	-35.181114
86	0xc17646fb	-15.392329
87	0xc2280a90	-42.010315
88	0xc1759afd	-15.350339
89	0xc1f396b4	-30.448586
90	0xc221d696	-40.459557
91	0xc120cb2d	-10.049603
92	0x4093a9de	4.6144857
93	0xc228eaa6	-42.22915
94	0xc1236a76	-10.213491
95	0xc203ba18	-32.931732
96	0xc2079b5d	-33.901722
97	0xbf3f6f51	-0.7477923
98	0xc109ec25	-8.620152
99	0xc12fe22f	-10.992721
100	0x3fb87b38	1.4412603
101	0xc0d5edd4	-6.6852818
102	0x3f88011b	1.0625337
103	0xc1edd4c3	-29.728888
104	0xc1fcbd43	-31.592413
105	0xc123dc0e	-10.241224
106	0xc1ed6c4d	-29.677881
107	0xc1a9db36	-21.232037
108	0xc18af237	-17.368269
109	0xc1f784b6	-30.9398
110	0xc08b8739	-4.3602567
111	0xc0d41516	-6.627574
112	0xc1fe2b0b	-31.771017
113	0xc18d6172	-17.67258
114	0xc24a8508	-50.629913
115	0xc24e5df2	-51.591743
116	0xc1d074cc	-26.05703
117	0xc1a054ea	-20.041462
118	0xc0c381ee	-6.1096106
119	0x4040f65f	3.0150373
120	0xc1c58889	-24.691668
121	0xc20ccfe0	-35.203003
122	0xc1d8112c	-27.008385
123	0xc106d0f8	-8.426018
124	0xc2070284	-33.752457
125	0xc1a0c026	-20.093822
126	0xc11bba0c	-9.732922
127	0xc208320b	-34.04887
128	0xc2593c17	-54.30868
129	0xbf8fc5f5	-1.1232287
130	0xc0c0e43f	-6.027862
131	0xc12dc163	-10.859714
132	0xc154b65a	-13.294519
133	0xc0bd56b5	-5.9168344
134	0x401a79a3	2.413674
135	0xc1b7dcc1	-22.98279
136	0xc0f33408	-7.6001015
137	0xc208a60b	-34.16215
138	0x400e1728	2.2201633
139	0xc1affe8a	-21.999287
140	0xc196ea72	-18.864475
141	0xc169a7b5	-14.603444
142	0xc22e2836	-43.53927
143	0xc1e44384	-28.532967
144	0xc13ecfec	-11.925762
145	0xc0f70124	-7.718889
146	0xc0f18f07	-7.5487094
147	0xc192423c	-18.282341
148	0xc1acfd7b	-21.62377
149	0xc0badb32	-5.8392572
150	0xc1dfdb49	-27.982073
151	0xc07dd971	-3.9663966
152	0xc11433b7	-9.262626
153	0xc118de6e	-9.554304
154	0xc19184e7	-18.189894
155	0xbf18590c	-0.59510875
156	0xc22c1b70	-43.026794
157	0xc1922f4e	-18.273098
158	0xc24a1aed	-50.526295
159	0xc16afe42	-14.687075
160	0xc0e43db2	-7.132531
161	0xc21cfedc	-39.248886
162	0xc05f2da0	-3.4871597
163	0xc1a46112	-20.547398
164	0xc11be048	-9.742256
165	0x3fcf59a9	1.6199237
166	0xc23139f2	-44.306587
167	0xc1f29856	-30.324383
168	0xc0a603e5	-5.1879754
169	0xc21b4e67	-38.826565
170	0xbfad5454	-1.354136
171	0xc2187576	-38.114708
172	0xc22cb8ca	-43.180458
173	0xc24d3fb1	-51.3122
174	0xc1d53bb9	-26.654161
175	0xc23208f1	-44.50873
176	0xc182a908	-16.332535
177	0xc1c0c351	-24.09537
178	0xc08d830c	-4.422247
179	0xc157ced9	-13.488
180	0xc233dfb3	-44.968456
181	0xc19c3987	-19.52809
182	0x40239494	2.5559435
183	0xc207616e	-33.845146
184	0xc0d37544	-6.6080647
185	0xc20467cf	-33.101376
186	0xc1279f03	-10.476321
187	0x40854bcd	4.165503
188	0xc113f6ad	-9.247724
189	0xc2094a96	-34.322838
190	0xbfd3bc09	-1.6541759
191	0xc20108a2	-32.25843
192	0xc1aa29b3	-21.27036
193	0xc2122d28	-36.544098
194	0xc1dbab02	-27.4585
195	0xc1b5cd6e	-22.725307
196	0xc1a34586	-20.408947
197	0x3cc8493f	0.024448989
198	0xc2159218	-37.39267
199	0xc17a8256	-15.65682
200	0xc1999cbf	-19.201536
201	0xc1bbd555	-23.479166
202	0xc14483e9	-12.282205
203	0xc16788c0	-14.470886
204	0xc215f784	-37.491714
205	0xc10b7b43	-8.717593
206	0xc1cb36f9	-25.401842
207	0xc1bc750a	-23.557148
208	0xc202f35f	-32.737667
209	0xc1266f03	-10.402102
210	0xc1d5e330	-26.735931
211	0xc2081817	-34.023525
212	0xc2006f9a	-32.108986
213	0xc120b9d6	-10.04537
214	0xc1b4fe96	-22.62431
215	0xc1aa614e	-21.297512
216	0xc1a2df0a	-20.358906
217	0xc16bdb3b	-14.741023
218	0xc20eeee4	-35.73329
219	0xc1969716	-18.823772
220	0xc25980e5	-54.375874
221	0xbe84a039	-0.2590349
222	0xc1ba8eb8	-23.319687
223	0xc293e651	-73.94984
224	0xc1452161	-12.320649
225	0xc1c84ef3	-25.03855
226	0xc1b2df35	-22.358988
227	0xc22cf1af	-43.23602
228	0x3ceaae55	0.028647581
229	0xc1c56bd1	-24.677645
230	0xc0e94382	-7.2894907
231	0xc21492bc	-37.143295
232	0xc0f51b77	-7.6596026
233	0xc212963c	-36.646713
234	0x40e97d41	7.29654
235	0xc1fcb2b5	-31.58726
236	0xc221c2c4	-40.4402
237	0xc211341d	-36.30089
238	0xc21ffde3	-39.997936
239	0xc18d8d01	-17.69385
240	0xc1fb7ed0	-31.43692
241	0xc1bcc035	-23.593851
242	0xc1572cad	-13.448407
243	0xc1d6d50f	-26.854033
244	0xc1995cab	-19.170248
245	0xc0cea435	-6.457545
246	0x403d83c3	2.961167
247	0xc1aefdf2	-21.873997
248	0xc25640f2	-53.563423
249	0xc232531c	-44.58116
250	0xc18eba43	-17.840948
251	0xc1503f44	-13.015446
252	0xc14b3ef8	-12.702873
253	0xc219e4f0	-38.47357
254	0xc24bdeb9	-50.967503
255	0xc1a706e7	-20.87837

net.2.weight f4 [512, 256]
0	0xbd97a6c8	-0.07404858
1	0xbeaf4e09	-0.34239224
2	0x3d050238	0.03247282
3	0xbd837ffe	-0.06420897
4	0xbe216b22	-0.15763524
5	0x3caebe24	0.0213309
6	0xbde11f5c	-0.109923095
7	0x3d1a822f	0.03772181
8	0xbddeca5b	-0.1087844
9	0x3e04cabb	0.1296796
10	0xbdc9c5cf	-0.09852182
11	0x3e48f9ef	0.19626592
12	0xbe06e771	-0.13174225
13	0x3e200299	0.15625991
14	0xbedf0f51	-0.43566373
15	0xbdad3238	-0.08456844
16	0xbeb8725d	-0.36024752
17	0x3e364835	0.17800982
18	0xbd57f8a6	-0.052727364
19	0xbe74cf09	-0.23907103
20	0xbea9a67d	-0.33134833
21	0xbdade769	-0.084914036
22	0xbdb70afd	-0.08937643
23	0x3e819c66	0.25314635
24	0x3cfbd06b	0.03073903
25	0xbb60486f	-0.0034222861
26	0xbf0c8672	-0.5489265
27	0x3d11dbc6	0.035609983
28	0xbe08f96e	-0.133764
29	0xbc847d7e	-0.01617312
30	0xbe6b815b	-0.22998564
31	0xbe3d67c6	-0.18496618
32	0xbe3f4163	-0.18677287
33	0xbf17a77d	-0.5923994
34	0xbdbf46ab	-0.09339651
35	0x3c1e0c7c	0.009646531
36	0xbde55293	-0.111973904
37	0xbe6ddae7	-0.23228036
38	0xbdd5072f	-0.10401761
39	0xbec270dd	-0.37976733
40	0xbec33f71	-0.3813434
41	0xbe490d29	-0.19633926
42	0xbed3f765	-0.41399685
43	0xbe9e4dba	-0.30918676
44	0x3d93cdd5	0.07216994
45	0x3caf560f	0.02140334
46	0xbe4e0390	-0.20118546
47	0xbeac5fd1	-0.33666852
48	0xbec53a5a	-0.3852108
49	0x3aa3c4b8	0.001249454
50	0x3de23a99	0.11046333
51	0xbe81ef26	-0.25377768
52	0x3c2f1ff1	0.010688768
53	0xbe9350c1	-0.28772548
54	0x3db0d39e	0.08634113
55	0x3d06c2d0	0.03290063
56	0x3bcb1f6c	0.006198814
57	0xbec704d2	-0.38870865
58	0x3c704a4a	0.014666149
59	0xbe0a2598	-0.13490903
60	0xbe79a7c5	-0.24380405
61	0xbca0506a	-0.019569594
62	0x3db32a23	0.08748271
63	0x3e3a3e04	0.1818772
64	0x3e566157	0.2093557
65	0xbf08507f	-0.5324783
66	0xbeecfbca	-0.4628585
67	0xbeb595b2	-0.3546577
68	0xbe8ad7a4	-0.27117646
69	0x3dcf5b41	0.10124827
70	0xbe300323	-0.17188697
71	0xbe9f87bb	-0.31158242
72	0xbe2a1756	-0.16610464
73	0xbe874c52	-0.26425415
74	0x3e5c39bd	0.215064
75	0xbe59d669	-0.21273197
76	0x3da5e931	0.08101118
77	0x3d68b184	0.056809917
78	0xbeb1feb2	-0.3476463
79	0xbe2e6300	-0.17029953
80	0xbddb23d2	-0.107001916
81	0x3d644fff	0.055740353
82	0xbe302375	-0.17201026
83	0xbe881cdf	-0.26584527
84	0xbe805622	-0.25065714
85	0xbd9e4a7e	-0.07729052
86	0xbeea120b	-0.4571689
87	0x3c94faa2	0.018185917
88	0xbdb19081	-0.0867014
89	0xbec6eb96	-0.38851613
90	0xbdef68cb	-0.116899095
91	0xbe68ffdb	-0.22753851
92	0xbd909e0a	-0.070613936
93	0xbcdbdb4b	-0.026837965
94	0xbb843295	-0.00403435
95	0xbe0fb495	-0.1403373
96	0x3e62baa1	0.22141506
97	0xbc487590	-0.01223506
98	0xbe6a9b91	-0.22910906
99	0xbf25b860	-0.6473446
100	0xbcf5da95	-0.030011455
101	0xbe6f6e6f	-0.23381971
102	0xbef4e717	-0.47832558
103	0xbd02ddb1	-0.031949703
104	0xbee8ee9f	-0.45494553
105	0xbe7d99d9	-0.2476572
106	0xbe9f9cdd	-0.31174365
107	0xbe837eca	-0.2568267
108	0xbe08f87c	-0.1337604
109	0xbe6fd071	-0.23419358
110	0xbee2f201	-0.4432526
111	0xbe13c9b6	-0.14432415
112	0xbd8e5756	-0.06950252
113	0xbf17a855	-0.5924123
114	0xbd54e6c6	-0.051977895
115	0xbc5bc78e	-0.013414277
116	0xbefbe47d	-0.4919776
117	0xbe5729f6	-0.210121
118	0x3d3dbd76	0.046323262
119	0xbe559a39	-0.20859613
120	0xbe8634fa	-0.26212293
121	0xbe8aea55	-0.27131906
122	0xbe65c529	-0.22438492
123	0x3e27f711	0.16402842
124	0xbea07af5	-0.3134381
125	0x3d109b9e	0.035304658
126	0xbe657d7d	-0.22411151
127	0x3eae1d3a	0.34006673
128	0xbe3d0dd6	-0.18462309
129	0xbeb5e33a	-0.35524923
130	0xbede2973	-0.43390998
131	0xbd949f8e	-0.07256995
132	0x3df72f81	0.120696075
133	0xbd24d947	-0.040246274
134	0xbcd54141	-0.026032092
135	0xbe32d115	-0.17462571
136	0xbe8791f8	-0.26478553
137	0xbddecb88	-0.10878664
138	0xbf61acdd	-0.88154393
139	0xbe26a625	-0.16274317
140	0xbe8aaa61	-0.27083114
141	0xbdde0f58	-0.1084277
142	0xbdca4e9c	-0.09878275
143	0xbe0eccd0	-0.13945317
144	0xbd1e7a64	-0.03869094
145	0x3e2d08ba	0.1689786
146	0xbeac02a3	-0.33595762
147	0xbe2ea9e7	-0.17057
148	0x3d181929	0.03713337
149	0xbeb9ee22	-0.36314493
150	0xbe0d6878	-0.13809383
151	0xbdbd61b0	-0.09247148
152	0xbda1d04b	-0.07901057
153	0xbe9c5e83	-0.30540857
154	0x3e229526	0.15877208
155	0x3d33cded	0.043897558
156	0x3d75f9f8	0.060052842
157	0xbeb3b01d	-0.350953
158	0xbe931fc5	-0.28735176
159	0xbd963659	-0.07334585
160	0xbe2bdf90	-0.16784501
161	0xbd1b1b95	-0.0378681
162	0xbcd2e2e1	-0.02574295
163	0xbe51d71a	-0.20492211
164	0xbc4971df	-0.012295215
165	0x3db286c5	0.087171115
166	0xbe5d30a2	-0.21600583
167	0x3e3f2868	0.18667758
168	0xbdf4eb8a	-0.11958988
169	0xbe231236	-0.15924916
170	0xbe1be7a4	-0.15225083
171	0xbe33c4d4	-0.17555553
172	0x3dcb7e5e	0.09936212
173	0xbb34f7ee	-0.0027613598
174	0xbe1ca83f	-0.15298556
175	0xbe9a21e9	-0.30103996
176	0xbf25b89b	-0.6473481
177	0xbe1239c7	-0.14279853
178	0x3c7adb62	0.015311094
179	0xbe24c972	-0.1609247
180	0xbeb4761a	-0.35246354
181	0xbdc414b2	-0.0957426
182	0xbd23fcc9	-0.040035997
183	0xbeaddc74	-0.33957255
184	0xbeb0eeed	-0.34557286
185	0xbdc57fc5	-0.09643511
186	0xbdce4eab	-0.100735985
187	0xbd4bcca2	-0.0497557
188	0xbddd3815	-0.108017124
189	0xbdf058c7	-0.11735683
190	0xbcb32cbd	-0.021871919
191	0xbd17bcd7	-0.037045326
192	0xbd8c4529	-0.06849129
193	0xbeb8a92a	-0.36066562
194	0x3db6dbfb	0.08928677
195	0xbdfab78e	-0.122420415
196	0xbe0053e7	-0.12532006
197	0xbe7bb9fd	-0.24582668
198	0x3dda5883	0.106614135
199	0xbf1762a6	-0.591349
200	0xbedbeeaa	-0.42955524
201	0xbe866126	-0.26245993
202	0xbdc3b074	-0.0955514
203	0x3d99cd2c	0.075098366
204	0xbe2ec157	-0.17065941
205	0xbed3a5f6	-0.41337556
206	0xbe237475	-0.15962394
207	0xbe3ba180	-0.18323326
208	0xbeb096db	-0.34490094
209	0xbe4ea056	-0.20178351
210	0xbe6b3bfe	-0.22972104
211	0xbe45e24e	-0.1932461
212	0xbf0543dc	-0.5205667
213	0xbe3c73f0	-0.18403602
214	0xbe4ce425	-0.20008905
215	0xbe83dcc2	-0.25754362
216	0xbeca17aa	-0.3947118
217	0xbe3164e6	-0.17323646
218	0xbe2a0ca3	-0.16606383
219	0xbe60dddb	-0.21959631
220	0xbeb0911d	-0.34485713
221	0xbe01c144	-0.12671381
222	0xbe7539ce	-0.23947832
223	0x3e0727c6	0.13198766
224	0xbea4bb8a	-0.3217433
225	0x3bcf7963	0.006331609
226	0xbf038626	-0.5137657
227	0xbd973b1f	-0.07384323
228	0x3dd5d273	0.10440531
229	0xbe1c9302	-0.15290454
230	0x3d0f8547	0.035039213
231	0x3d21f0d2	0.039536305
232	0x3e8e2a6f	0.2776675
233	0x3de587ac	0.11207518
234	0xbcc0565c	-0.02347868
235	0x3ec2c3b8	0.38039947
236	0x3e3051d3	0.17218713
237	0xbe0db402	-0.13838199
238	0xbe9cc50d	-0.30619088
239	0x3dabb09b	0.08383294
240	0xbe6b271a	-0.22964135
241	0x3c4ada06	0.012381082
242	0xbf01a805	-0.50647
243	0x3df33ff0	0.118774295
244	0xbc4cab7e	-0.012492059
245	0xbd19e71c	-0.03757392
246	0xbb5fbfdd	-0.003414146
247	0xbeb9aacd	-0.36263123
248	0xbcc1097b	-0.023564091
249	0xbda976cd	-0.082746126
250	0xbe5e4e94	-0.21709663
251	0x3e5664e7	0.20936929
252	0xbd32f492	-0.04369027
253	0xbd3cf1a7	-0.046128895
254	0x3dd42ede	0.10360502
255	0xbd74173e	-0.059592478

net.2.bias f4 [512]
0	0xbe23cb92	-0.15995625
1	0xbde8bb48	-0.11363846
2	0xbd99d41d	-0.075111605
3	0xbe0799bf	-0.13242243
4	0xbe19a833	-0.15005569
5	0xbe23f318	-0.16010702
6	0x4129b283	10.606082
7	0xbe0c909b	-0.13727038
8	0xbe468672	-0.19387224
9	0xbe90e537	-0.28299877
10	0xbe461bb8	-0.19346511
11	0xc10f3542	-8.950502
12	0xbdbc0859	-0.0918128
13	0xbd8ef4e2	-0.069803014
14	0xbe036687	-0.1283208
15	0xbe7f86c7	-0.24953757
16	0xbe72031d	-0.23634
17	0xbd9e28e4	-0.07722643
18	0xbdda108e	-0.10647689
19	0xbd522c6b	-0.05131189
20	0xbf2c4149	-0.6728712
21	0xbee585c1	-0.4482861
22	0xbdb0e222	-0.086368814
23	0xbdfe65a6	-0.12421732
24	0xbdbea6e8	-0.093091786
25	0xbe113e83	-0.14184003
26	0xbdf3b08e	-0.118989095
27	0xbf54563e	-0.82944095
28	0xbed44305	-0.41457382
29	0xbd41d14d	-0.047318745
30	0xbd29cd19	-0.041455362
31	0xbf0b4b9f	-0.54412264
32	0xbcec1f79	-0.028823601
33	0xbdedebc7	-0.116172366
34	0xbdfbb308	-0.12290007
35	0xbd9a43c3	-0.07532456
36	0xbe009880	-0.12558174
37	0xbd85b5b0	-0.06528795
38	0xbee92b3d	-0.455408
39	0x41f38723	30.440985
40	0xbdca03a5	-0.098639764
41	0xbe093ef8	-0.13402927
42	0xbe2a0f02	-0.16607288
43	0xbd3e4363	-0.046450984
44	0xbf7fce19	-0.99923855
45	0xbe1e619d	-0.15466924
46	0xc211b9b7	-36.431362
47	0xbe1509ef	-0.1455457
48	0xbb49e37a	-0.0030805753
49	0xbc7375cc	-0.014859628
50	0xbf086da9	-0.5329233
51	0xbd3ec30c	-0.04657273
52	0xbe0fadb4	-0.14031106
53	0xbd838a18	-0.06422824
54	0xbe0b9a7e	-0.13633153
55	0xbfe91cf0	-1.8211956
56	0xbd6eb1bf	-0.05827498
57	0xbe40af94	-0.18816978
58	0xbed62151	-0.41822293
59	0xbdc180c8	-0.09448391
60	0xbd8c0deb	-0.06838592
61	0xbdfa2b5c	-0.122153014
62	0xbdde94d3	-0.1086823
63	0xbe64e54e	-0.22353098
64	0xbdd4fd42	-0.103998676
65	0xbe903bc5	-0.281706
66	0xbe8eb264	-0.27870476
67	0xbe21b133	-0.15790252
68	0xbe8fce71	-0.2808719
69	0xbe29fb98	-0.16599882
70	0xbd55ac81	-0.052166466
71	0xbd60db84	-0.054896846
72	0x4156c2e0	13.422577
73	0xbe80a9d0	-0.25129557
74	0xbe63dbf0	-0.22251868
75	0xbe1913d0	-0.14948964
76	0xbd657b0a	-0.056025542
77	0xbe7d9989	-0.247656
78	0xbe9ba97f	-0.30402753
79	0xbf998604	-1.1994023
80	0xbd9e967d	-0.07743547
81	0xbdc1e106	-0.09466748
82	0xbd907861	-0.070542105
83	0xbcb44a9a	-0.022008229
84	0xbd3cea0c	-0.046121642
85	0xbe52a71a	-0.20571557
86	0xbe268dba	-0.16265002
87	0xbe777d1d	-0.2416882
88	0xbd4d111f	-0.050065156
89	0xbd824b26	-0.0636199
90	0xbe818d79	-0.25303248
91	0x42082af1	34.041935
92	0xbe3a385d	-0.18185563
93	0xbcea8e96	-0.028632443
94	0xbe07f870	-0.13278365
95	0xbe06046e	-0.13087627
96	0xbe52d2de	-0.20588252
97	0xbe2f8f27	-0.17144452
98	0xbe2b9caa	-0.16758981
99	0xbd6665a4	-0.056249276
100	0x4166d8ce	14.427931
101	0xbdf78593	-0.12086024
102	0xbd372f87	-0.04472306
103	0xbf455573	-0.7708351
104	0xbe69b6bd	-0.22823615
105	0xc2817c4d	-64.742775
106	0xbdf1feb6	-0.118161604
107	0xbdecc83a	-0.11561628
108	0xbec2bce7	-0.38034746
109	0xbe7c588a	-0.2464315
110	0xbde511cc	-0.11185035
111	0xbd2fb702	-0.04289914
112	0xbe28ad86	-0.16472444
113	0xbe630112	-0.22168377
114	0xc1ac2b32	-21.521091
115	0xbe349867	-0.17636262
116	0x41648686	14.282843
117	0x3b8be1d7	0.0042688656
118	0xbe7659ad	-0.24057646
119	0xbe880dd7	-0.2657306
120	0xbdb136a8	-0.08653003
121	0xbfc1e9e3	-1.5149502
122	0xbdc2c349	-0.09509904
123	0xbe18696f	-0.1488397
124	0xbdd58a8c	-0.10426816
125	0xbf9f1ed1	-1.243128
126	0xbdda2778	-0.10652059
127	0xbe1b14eb	-0.15144698
128	0xbe0d1134	-0.13776094
129	0xbda433be	-0.080176815
130	0xbd8abd42	-0.06774379
131	0xbd499a42	-0.049219377
132	0xbd793245	-0.060838956
133	0xbd8c270e	-0.068433866
134	0xbe78cc71	-0.24296738
135	0xbe1aeea0	-0.1513009
136	0xbe0272ea	-0.12739149
137	0xc079616a	-3.8965707
138	0xbe049a2f	-0.12949441
139	0xbec0d619	-0.37663344
140	0xbe53327c	-0.20624727
141	0xbd7a7017	-0.061142053
142	0xbde032c5	-0.109471835
143	0xbed58d30	-0.4170928
144	0xbd32ce8b	-0.043654006
145	0xbd4a3f29	-0.04937664
146	0xbe8c0287	-0.27345678
147	0xbde4252f	-0.11139905
148	0xbd3dbeb9	-0.046324465
149	0xbe896181	-0.26832202
150	0xbe52c397	-0.20582424
151	0xc20f2e44	-35.79518
152	0xbd8afca2	-0.06786467
153	0xbd70f975	-0.05883165
154	0xbe07f1b6	-0.13275799
155	0xbe062a30	-0.13102031
156	0xbd1c9cc2	-0.038235433
157	0xbe0000d9	-0.12500323
158	0xc006534a	-2.0988336
159	0xbdf8c8ac	-0.1214765
160	0xbe177dca	-0.14794078
161	0xbe327cd0	-0.17430425
162	0xbd9d8b21	-0.07692552
163	0xbd5555d9	-0.052083824
164	0xc1a998d5	-21.199625
165	0xbde9965a	-0.114056304
166	0xbd71198c	-0.058862254
167	0xbdf54010	-0.119751096
168	0xbd3112a3	-0.043230664
169	0xbe225103	-0.15851216
170	0xbea8da7b	-0.32979187
171	0xbea07760	-0.31341076
172	0xbd6e11fd	-0.058122624
173	0x4232f164	44.735733
174	0xbd429280	-0.047502995
175	0xbd8ecfdd	-0.069732405
176	0xbe4c4602	-0.19948581
177	0xbc7c3f45	-0.015395944
178	0xbc2a26b3	-0.010385203
179	0xbe1d681b	-0.15371744
180	0xbe184aaa	-0.14872232
181	0xbdfbabf4	-0.12288657
182	0xbd93753c	-0.07200095
183	0xc14d88c1	-12.845887
184	0xc179d25a	-15.613855
185	0xbd0d69c0	-0.03452468
186	0xbdeb757d	-0.114970185
187	0xbd6d4369	-0.057925615
188	0xbe012900	-0.12613297
189	0xbdde52e2	-0.108556524
190	0x3cce22e3	0.02516312
191	0xbd2a5caa	-0.041592278
192	0xbe40fc7c	-0.18846315
193	0xbddd2658	-0.10798329
194	0xbe898151	-0.26856473
195	0xbf231b5b	-0.63713616
196	0xbdb0c578	-0.08631414
197	0xbd1937f1	-0.037406866
198	0xbe885c84	-0.26633084
199	0xbe433dc5	-0.19066532
200	0xbe16e3ba	-0.14735308
201	0xbda2ace1	-0.0794313
202	0xbd21fdfd	-0.039548863
203	0xbf7a56d2	-0.9778873
204	0xbda0fd06	-0.078607604
205	0xc112031e	-9.125761
206	0xbe25859a	-0.16164246
207	0x3c24b389	0.01005257
208	0xbe8d8ce7	-0.27646562
209	0xc09ba25b	-4.863569
210	0xbd8355a6	-0.064128205
211	0xbdf1e97e	-0.11812113
212	0xbd928eb2	-0.07156123
213	0xc25e2e7a	-55.545387
214	0xbe820a2b	-0.25398383
215	0xbde730ac	-0.1128858
216	0xbe0c6dcf	-0.13713764
217	0xbe001003	-0.12506108
218	0xbe2e8610	-0.17043328
219	0xbe170894	-0.14749366
220	0xbda0b13a	-0.07846303
221	0xbdcddf58	-0.10052365
222	0xbe3761ad	-0.17908354
223	0xbe08f17c	-0.13373369
224	0xbebcf627	-0.3690655
225	0xbe51a68f	-0.20473693
226	0xbdb398f6	-0.08769409
227	0x42258ea7	41.38931
228	0xbfa86133	-1.3154663
229	0xbde14b89	-0.11000735
230	0xbe7e4abd	-0.24833198
231	0xbd9d4df0	-0.07680881
232	0xbd8f6f02	-0.07003595
233	0xbe321324	-0.17390114
234	0xbd97b8fe	-0.07408331
235	0xbebb624e	-0.36598438
236	0xbe55afd0	-0.20867848
237	0xbe0774ce	-0.13228151
238	0xbdfa56ef	-0.122236125
239	0xbe028310	-0.12745309
240	0xc07a1b53	-3.9079177
241	0xbe16f93c	-0.14743513
242	0xbe063537	-0.13106237
243	0x4173a7b1	15.22844
244	0xbdbd4c74	-0.09243098
245	0xbe56307d	-0.20916934
246	0x415ed865	13.927831
247	0xbd8a64c6	-0.06757502
248	0xbe6bf56b	-0.23042838
249	0xbd93d088	-0.072175086
250	0x424de7b6	51.47628
251	0xbdbf3800	-0.09336853
252	0xbc9958d0	-0.018719107
253	0xbe1b3c2b	-0.15159671
254	0xbdc8e5df	-0.098094694
255	0xbd65d5a0	-0.05611193

net.4.weight f4 [1, 512]
0	0xbdc3c799	-0.095595546
1	0x3d704b02	0.058665283
2	0x3d3481ed	0.04406922
3	0x3db993c3	0.090613864
4	0x3d655d9b	0.055997472
5	0xbc68c83d	-0.014207897
6	0x3f7dab8c	0.99089885
7	0x3d82f336	0.06394045
8	0xbab25bce	-0.0013607682
9	0x39e7cd80	0.00044212863
10	0xbcdc5685	-0.026896724
11	0xbf545be1	-0.82952696
12	0x3d9255a8	0.07145244
13	0x3d7737b5	0.06035586
14	0x3cba8995	0.022770682
15	0xbcfe9979	-0.03107904
16	0x3d0115bf	0.03151488
17	0x3d8ce8e6	0.06880359
18	0x3dc4960a	0.0959893
19	0x3d8807d5	0.06642119
20	0xbda48fca	-0.08035238
21	0x3cd6b1de	0.02620786
22	0x3d993003	0.07479861
23	0x3db122ed	0.0864924
24	0x3dc265ce	0.09492074
25	0x3d9328b6	0.07185499
26	0x3d920361	0.07129551
27	0x3c83ebb5	0.016103605
28	0xbc984e72	-0.018592093
29	0x3da00e35	0.0781521
30	0x3da9828d	0.08276854
31	0x3c1832e5	0.009289478
32	0xbd17f75f	-0.037101146
33	0xbd7466da	-0.0596684
34	0x3dbc45de	0.091930136
35	0x3d07fec0	0.033201933
36	0x3d870bce	0.065940484
37	0x3da75ba8	0.08171779
38	0xbd9c7ecf	-0.07641374
39	0x3e8c593e	0.27411836
40	0x3b8f22a5	0.0043681436
41	0x3d860583	0.0654402
42	0xbd5b7e44	-0.053587213
43	0x3d9c50e6	0.07632618
44	0xbd6112cc	-0.054949567
45	0x3da8291d	0.08210967
46	0xbe8be556	-0.27323407
47	0x3d744db2	0.05964441
48	0x3cc236b7	0.02370773
49	0x36adb30a	5.1766447e-06
50	0xbdc01614	-0.09379211
51	0x3dc4b26a	0.09604342
52	0x3dae59bb	0.085132085
53	0x3d9fed8b	0.078089796
54	0x3cc1d45c	0.023660831
55	0x3f8ba78b	1.0910505
56	0x3d90c606	0.0706902
57	0xbda5ae3a	-0.08089872
58	0x3c455af4	0.012045611
59	0x3dae7374	0.08518115
60	0x3d0a148c	0.033711
61	0x3d96e93b	0.07368704
62	0xbdb3f058	-0.08786076
63	0xb84a149e	-4.8179754e-05
64	0x3da4c455	0.0804526
65	0xbc00333c	-0.007824715
66	0x3da2651e	0.07929443
67	0x3d682c24	0.05668272
68	0xbd14daf6	-0.03634163
69	0x3dc75094	0.09732166
70	0x3c76b78e	0.015058411
71	0x3dcaa1da	0.09894152
72	0x3f6de099	0.92920834
73	0x3c4a7641	0.0123572955
74	0x3d0fcab1	0.03510541
75	0x3da6b690	0.0814029
76	0x3da2493d	0.07924125
77	0xbdc0f8ed	-0.09422479
78	0x3b087b7d	0.0020825558
79	0x3da05b06	0.07829861
80	0x3dcac1c7	0.09900241
81	0x3d8b5a0c	0.068042845
82	0xbdbb56fb	-0.091474496
83	0xbcad07fe	-0.021121975
84	0x3c1475ec	0.009061318
85	0x3d7e80b0	0.062134445
86	0x3cc95546	0.024576794
87	0xbd2b378c	-0.04180102
88	0x3b38cb87	0.0028197484
89	0x3d899832	0.06718482
90	0xbc5a20c7	-0.013313479
91	0x3f2c53ef	0.6731557
92	0x3d171acb	0.036890786
93	0x3d296b87	0.04136231
94	0xbcc3881c	-0.023868613
95	0xbcca0724	-0.024661608
96	0xbcc9ef18	-0.024650142
97	0xbd929d0c	-0.071588606
98	0xbd9c0e56	-0.07619922
99	0x3dc2ac44	0.09505513
100	0x3ef2d98b	0.47431597
101	0x3d991d99	0.074763484
102	0x3dc94211	0.09827054
103	0x3ce4a01b	0.027908375
104	0x3f88f444	1.0699544
105	0xbe360ddc	-0.17778724
106	0x3c461955	0.012091001
107	0x3db33766	0.08750801
108	0xbcbfd1ee	-0.023415532
109	0x3c2d0b51	0.01056178
110	0x3d97925b	0.07400962
111	0x3abda9a5	0.0014470114
112	0xbdabffbd	-0.083983876
113	0x3be96de7	0.007123697
114	0x3f926a6e	1.143873
115	0xbc85df2d	-0.01634177
116	0x3eb03a97	0.344197
117	0x3c56055e	0.013062803
118	0xbb8b07b8	-0.0042428635
119	0x3d0fa012	0.035064764
120	0x3db9ae3c	0.09066436
121	0xbd5d4cb6	-0.054028235
122	0x3dbf318c	0.09335622
123	0xbc19e43f	-0.009392797
124	0x3dc329e9	0.09529478
125	0xbc7ed8dc	-0.015554633
126	0x3d9f001c	0.07763693
127	0xbd0e86cf	-0.034796532
128	0xbd97cb17	-0.07411783
129	0x3db1209f	0.086488
130	0x3d85bd64	0.06530264
131	0x3bd7ceba	0.006585923
132	0x3d8e4a66	0.06947784
133	0x3d795db0	0.060880363
134	0x3c884216	0.016633075
135	0xbd7bdc9f	-0.061489698
136	0x3d812b62	0.06307103
137	0x3d5d3eb4	0.054014876
138	0x3d093750	0.033500016
139	0x3d370878	0.04468581
140	0x3d848d26	0.064722344
141	0x3d8faf8c	0.07015905
142	0x3c41ecec	0.011836272
143	0x3d83b9c2	0.06431915
144	0x3d7c2fc4	0.06156899
145	0x3d795947	0.060876157
146	0xbe0902ec	-0.13380021
147	0x3dbbee54	0.09176317
148	0x3d90a47a	0.070626214
149	0x3daf1928	0.0854972
150	0xbbd24374	-0.0064167324
151	0xbedb175c	-0.4279126
152	0x3d9e561e	0.07731269
153	0x3c856123	0.01628167
154	0x3da50fac	0.0805963
155	0x3d9d2ec3	0.07674935
156	0x3db2065e	0.08692621
157	0xbdc77cd4	-0.09740606
158	0x4060e5cd	3.514026
159	0x3dbe2964	0.092852384
160	0x3ba3d37d	0.0049995766
161	0xbdbdb687	-0.0926333
162	0x3c016125	0.007896696
163	0x3d66ad1b	0.05631743
164	0xbed803ba	-0.42190343
165	0xbd9ef256	-0.07761066
166	0xbbba6086	-0.005687776
167	0x3d96aaa8	0.07356769
168	0x3ccc0642	0.024905328
169	0xbc39bfe3	-0.011337253
170	0xbd3a077a	-0.045417286
171	0x39b34fcc	0.00034200994
172	0x3d6cff02	0.057860382
173	0x3eede5f7	0.46464512
174	0x3dacea24	0.08443096
175	0x3dc98509	0.098398276
176	0xbcd57dba	-0.026060928
177	0x3bfd0fb4	0.007722819
178	0x3b8bb498	0.004263472
179	0xbdbc558b	-0.091960035
180	0x3d981344	0.074255496
181	0x3da84eec	0.08218178
182	0x3da35980	0.07976055
183	0x4085f8ac	4.1866055
184	0x3e39722e	0.18109962
185	0x3bc81bf8	0.0061068498
186	0x3db92b1a	0.09041424
187	0x3daada52	0.083424225
188	0x3d826860	0.06367564
189	0xbd74d0c4	-0.059769407
190	0x3b8eb709	0.0043553156
191	0x3d950bcb	0.0727764
192	0x3daa5e4d	0.08318768
193	0x3d734f4c	0.059401795
194	0xbd2c9cbb	-0.042141657
195	0xbd8a18f4	-0.06743041
196	0x3cdfbebf	0.027312635
197	0x3d055fdf	0.032562133
198	0x3d290db8	0.04127285
199	0x3d980743	0.0742326
200	0x3d90b426	0.070656106
201	0xb8757096	-5.8517406e-05
202	0x3d89b85e	0.067246184
203	0xbb28f3e7	-0.0025780143
204	0x3dc79358	0.097449005
205	0x4037b716	2.8705497
206	0x3db41632	0.08793296
207	0x3c2bf4bb	0.01049536
208	0xbbb8b4fb	-0.005636809
209	0x40dd137f	6.90863
210	0x3da51cda	0.080621436
211	0x3da3da35	0.08000604
212	0x3dc05576	0.093913004
213	0xbf3d92ca	-0.7405211
214	0xbb54db18	-0.0032479223
215	0x3dbf86ec	0.09351906
216	0x3d773cd8	0.06036076
217	0x3d9e9fca	0.07745321
218	0xbd3649cb	-0.04450397
219	0xbcf0974d	-0.02936902
220	0x3d9eba3f	0.077503674
221	0x3db12a06	0.086505935
222	0xbdc966fa	-0.09834094
223	0x3d70b242	0.05876375
224	0x3ce8b43c	0.028406255
225	0x3c3ca749	0.011514493
226	0x3d74ff7e	0.05981397
227	0x3f49a269	0.78763443
228	0xbda33b06	-0.07970242
229	0xba3cbdb7	-0.00071999006
230	0x3dc43980	0.0958128
231	0x3d8ac4f8	0.0677585
232	0x3da11c88	0.0786677
233	0xbd083716	-0.03325566
234	0x3da08cf2	0.07839383
235	0x3c76897a	0.015047425
236	0x3d0bba15	0.03411301
237	0x3d9c5ca5	0.07634858
238	0x3dc0c77e	0.0941305
239	0xbc8432d4	-0.016137518
240	0xbfc24af3	-1.5179123
241	0x3dbbc2f8	0.09168047
242	0x3d99d1e5	0.07510737
243	0x3f69e341	0.91362387
244	0x3d8f8e3d	0.07009552
245	0x3dbc9da8	0.09209758
246	0x3f917f92	1.1367056
247	0x3c1bc14a	0.009506533
248	0x3d809205	0.06277851
249	0x3d95020f	0.07275783
250	0x3ee5bbc2	0.4486981
251	0x3d7a6ef5	0.061140973
252	0xbb3664ca	-0.002783107
253	0x3d832467	0.064034276
254	0x3cd83a5c	0.026395015
255	0x3b9bf929	0.004759927
